…
------------------------------------------------------------------------
> Fold 5 - Loss: 3.608745813369751 - Accuracy: 0.5333333611488342%
------------------------------------------------------------------------
Average scores for all folds:
> Accuracy: 0.5477049112319946 (+- 0.022688838149216763)
> Loss: 3.40279221534729
------------------------------------------------------------------------
Model: "sequential_69"
_________________________________________________________________
Layer (type)                 Output Shape              Param #   
=================================================================
dense_483 (Dense)            (None, 4096)              82673664  
_________________________________________________________________
dense_484 (Dense)            (None, 1024)              4195328   
_________________________________________________________________
dense_485 (Dense)            (None, 512)               524800    
_________________________________________________________________
dense_486 (Dense)            (None, 128)               65664     
_________________________________________________________________
dense_487 (Dense)            (None, 128)               16512     
_________________________________________________________________
dense_488 (Dense)            (None, 64)                8256      
_________________________________________________________________
dense_489 (Dense)            (None, 2)                 130       
=================================================================
Total params: 87,484,354
Trainable params: 87,484,354
Non-trainable params: 0
_________________________________________________________________


#########
#	2	#
#########
#######################
# batch normalisation
#######################

	model = Sequential()
	model.add(Dense(4096, activation = 'relu', input_dim=20183))
…
------------------------------------------------------------------------
> Fold 5 - Loss: 2.2691071033477783 - Accuracy: 0.5333333611488342%
------------------------------------------------------------------------
Average scores for all folds:
> Accuracy: 0.5475409924983978 (+- 0.045766129922151705)
> Loss: 2.194855976104736
------------------------------------------------------------------------
Model: "sequential_74"
_________________________________________________________________
Layer (type)                 Output Shape              Param #   
=================================================================
dense_518 (Dense)            (None, 4096)              82673664  
_________________________________________________________________
batch_normalization_114 (Bat (None, 4096)              16384     
_________________________________________________________________
dense_519 (Dense)            (None, 1024)              4195328   
_________________________________________________________________
batch_normalization_115 (Bat (None, 1024)              4096      
_________________________________________________________________
dense_520 (Dense)            (None, 512)               524800    
_________________________________________________________________
batch_normalization_116 (Bat (None, 512)               2048      
_________________________________________________________________
dense_521 (Dense)            (None, 128)               65664     
_________________________________________________________________
batch_normalization_117 (Bat (None, 128)               512       
_________________________________________________________________
dense_522 (Dense)            (None, 128)               16512     
_________________________________________________________________
batch_normalization_118 (Bat (None, 128)               512       
_________________________________________________________________
dense_523 (Dense)            (None, 64)                8256      
_________________________________________________________________
batch_normalization_119 (Bat (None, 64)                256       
_________________________________________________________________
dense_524 (Dense)            (None, 2)                 130       
=================================================================
Total params: 87,508,162
Trainable params: 87,496,258
Non-trainable params: 11,904
_________________________________________________________________



#########
#	3	#
#########
#####################
# dropout
#####################
https://machinelearningmastery.com/dropout-regularization-deep-learning-models-keras/
…
------------------------------------------------------------------------
> Fold 5 - Loss: 1.501067876815796 - Accuracy: 0.6166666746139526%
------------------------------------------------------------------------
Average scores for all folds:
> Accuracy: 0.5544808745384217 (+- 0.04285826246338393)
> Loss: 1.9079606056213378
------------------------------------------------------------------------
Model: "sequential_79"
_________________________________________________________________
Layer (type)                 Output Shape              Param #   
=================================================================
dense_553 (Dense)            (None, 4096)              82673664  
_________________________________________________________________
batch_normalization_144 (Bat (None, 4096)              16384     
_________________________________________________________________
dense_554 (Dense)            (None, 1024)              4195328   
_________________________________________________________________
batch_normalization_145 (Bat (None, 1024)              4096      
_________________________________________________________________
dropout_12 (Dropout)         (None, 1024)              0         
_________________________________________________________________
dense_555 (Dense)            (None, 512)               524800    
_________________________________________________________________
batch_normalization_146 (Bat (None, 512)               2048      
_________________________________________________________________
dropout_13 (Dropout)         (None, 512)               0         
_________________________________________________________________
dense_556 (Dense)            (None, 128)               65664     
_________________________________________________________________
batch_normalization_147 (Bat (None, 128)               512       
_________________________________________________________________
dense_557 (Dense)            (None, 128)               16512     
_________________________________________________________________
batch_normalization_148 (Bat (None, 128)               512       
_________________________________________________________________
dense_558 (Dense)            (None, 64)                8256      
_________________________________________________________________
batch_normalization_149 (Bat (None, 64)                256       
_________________________________________________________________
dropout_14 (Dropout)         (None, 64)                0         
_________________________________________________________________
dense_559 (Dense)            (None, 2)                 130       
=================================================================
Total params: 87,508,162
Trainable params: 87,496,258
Non-trainable params: 11,904
_________________________________________________________________

#########
#	4	#
#########
#####################
# dropout + maxnorm
#####################
https://machinelearningmastery.com/dropout-regularization-deep-learning-models-keras/
…
